…
	test_dir: /data/agong/test
	train_dir: /data/agong/train
	val: False
	val_dir: /data/agong/val
	val_interval: 1
	workers: 4
2019-04-08 11:15:14,019-Total number of gpus: 4
2019-04-08 11:15:14,683 - [worker 3] - Initializing trainer
2019-04-08 11:15:15,673 - [worker 1] - Initializing trainer
2019-04-08 11:15:15,673 - [worker 2] - Initializing trainer
2019-04-08 11:15:15,681 - [worker 0] - Initializing trainer
2019-04-08 11:15:25,166 - [worker 2] - Model info
DistributedDataParallel(
  (module): GridNet(
    (lateral_in): LateralBlock(
      (conv): Sequential(
        (0): PReLU(num_parameters=1)
        (1): Conv2d(12, 32, kernel_size=(3, 3), stride=(1, 1), padding=(1, 1))
        (2): PReLU(num_parameters=1)
        (3): Conv2d(32, 32, kernel_size=(3, 3), stride=(1, 1), padding=(1, 1))
      )
      (conv2): Conv2d(12, 32, kernel_size=(3, 3), stride=(1, 1), padding=(1, 1))
    )
    (lateral_out): LateralBlock(
      (conv): Sequential(
        (0): PReLU(num_parameters=1)
        (1): Conv2d(32, 3, kernel_size=(3, 3), stride=(1, 1), padding=(1, 1))
        (2): PReLU(num_parameters=1)
        (3): Conv2d(3, 3, kernel_size=(3, 3), stride=(1, 1), padding=(1, 1))
      )
      (conv2): Conv2d(32, 3, kernel_size=(3, 3), stride=(1, 1), padding=(1, 1))
    )
    (down_00): DownSamplingBlock(
      (conv): Sequential(
        (0): PReLU(num_parameters=1)
        (1): Conv2d(32, 64, kernel_size=(3, 3), stride=(2, 2), padding=(1, 1))
        (2): PReLU(num_parameters=1)
        (3): Conv2d(64, 64, kernel_size=(3, 3), stride=(1, 1), padding=(1, 1))
      )
    )
    (down_10): DownSamplingBlock(
      (conv): Sequential(
        (0): PReLU(num_parameters=1)
        (1): Conv2d(64, 96, kernel_size=(3, 3), stride=(2, 2), padding=(1, 1))
        (2): PReLU(num_parameters=1)
        (3): Conv2d(96, 96, kernel_size=(3, 3), stride=(1, 1), padding=(1, 1))
      )
    )
    (lateral_00): LateralBlock(
      (conv): Sequential(
        (0): PReLU(num_parameters=1)
        (1): Conv2d(32, 32, kernel_size=(3, 3), stride=(1, 1), padding=(1, 1))
        (2): PReLU(num_parameters=1)
        (3): Conv2d(32, 32, kernel_size=(3, 3), stride=(1, 1), padding=(1, 1))
      )
      (conv2): Conv2d(32, 32, kernel_size=(3, 3), stride=(1, 1), padding=(1, 1))
    )
    (down_01): DownSamplingBlock(
      (conv): Sequential(
        (0): PReLU(num_parameters=1)
        (1): Conv2d(32, 64, kernel_size=(3, 3), stride=(2, 2), padding=(1, 1))
        (2): PReLU(num_parameters=1)
        (3): Conv2d(64, 64, kernel_size=(3, 3), stride=(1, 1), padding=(1, 1))
      )
    )
    (down_11): DownSamplingBlock(
      (conv): Sequential(
        (0): PReLU(num_parameters=1)
        (1): Conv2d(64, 96, kernel_size=(3, 3), stride=(2, 2), padding=(1, 1))
        (2): PReLU(num_parameters=1)
        (3): Conv2d(96, 96, kernel_size=(3, 3), stride=(1, 1), padding=(1, 1))
      )
    )
    (lateral_10): LateralBlock(
      (conv): Sequential(
        (0): PReLU(num_parameters=1)
        (1): Conv2d(64, 64, kernel_size=(3, 3), stride=(1, 1), padding=(1, 1))
        (2): PReLU(num_parameters=1)
        (3): Conv2d(64, 64, kernel_size=(3, 3), stride=(1, 1), padding=(1, 1))
      )
      (conv2): Conv2d(64, 64, kernel_size=(3, 3), stride=(1, 1), padding=(1, 1))
    )
    (lateral_20): LateralBlock(
      (conv): Sequential(
        (0): PReLU(num_parameters=1)
        (1): Conv2d(96, 96, kernel_size=(3, 3), stride=(1, 1), padding=(1, 1))
        (2): PReLU(num_parameters=1)
        (3): Conv2d(96, 96, kernel_size=(3, 3), stride=(1, 1), padding=(1, 1))
      )
      (conv2): Conv2d(96, 96, kernel_size=(3, 3), stride=(1, 1), padding=(1, 1))
    )
    (lateral_01): LateralBlock(
      (conv): Sequential(
        (0): PReLU(num_parameters=1)
        (1): Conv2d(32, 32, kernel_size=(3, 3), stride=(1, 1), padding=(1, 1))
        (2): PReLU(num_parameters=1)
        (3): Conv2d(32, 32, kernel_size=(3, 3), stride=(1, 1), padding=(1, 1))
      )
      (conv2): Conv2d(32, 32, kernel_size=(3, 3), stride=(1, 1), padding=(1, 1))
    )
    (down_02): DownSamplingBlock(
      (conv): Sequential(
        (0): PReLU(num_parameters=1)
        (1): Conv2d(32, 64, kernel_size=(3, 3), stride=(2, 2), padding=(1, 1))
        (2): PReLU(num_parameters=1)
        (3): Conv2d(64, 64, kernel_size=(3, 3), stride=(1, 1), padding=(1, 1))
      )
    )
    (down_12): DownSamplingBlock(
      (conv): Sequential(
        (0): PReLU(num_parameters=1)
        (1): Conv2d(64, 96, kernel_size=(3, 3), stride=(2, 2), padding=(1, 1))
        (2): PReLU(num_parameters=1)
        (3): Conv2d(96, 96, kernel_size=(3, 3), stride=(1, 1), padding=(1, 1))
      )
    )
    (lateral_11): LateralBlock(
      (conv): Sequential(
        (0): PReLU(num_parameters=1)
        (1): Conv2d(64, 64, kernel_size=(3, 3), stride=(1, 1), padding=(1, 1))
        (2): PReLU(num_parameters=1)
        (3): Conv2d(64, 64, kernel_size=(3, 3), stride=(1, 1), padding=(1, 1))
      )
      (conv2): Conv2d(64, 64, kernel_size=(3, 3), stride=(1, 1), padding=(1, 1))
    )
    (lateral_21): LateralBlock(
      (conv): Sequential(
        (0): PReLU(num_parameters=1)
        (1): Conv2d(96, 96, kernel_size=(3, 3), stride=(1, 1), padding=(1, 1))
        (2): PReLU(num_parameters=1)
        (3): Conv2d(96, 96, kernel_size=(3, 3), stride=(1, 1), padding=(1, 1))
      )
      (conv2): Conv2d(96, 96, kernel_size=(3, 3), stride=(1, 1), padding=(1, 1))
    )
    (lateral_22): LateralBlock(
      (conv): Sequential(
        (0): PReLU(num_parameters=1)
        (1): Conv2d(96, 96, kernel_size=(3, 3), stride=(1, 1), padding=(1, 1))
        (2): PReLU(num_parameters=1)
        (3): Conv2d(96, 96, kernel_size=(3, 3), stride=(1, 1), padding=(1, 1))
      )
      (conv2): Conv2d(96, 96, kernel_size=(3, 3), stride=(1, 1), padding=(1, 1))
    )
    (lateral_12): LateralBlock(
      (conv): Sequential(
        (0): PReLU(num_parameters=1)
        (1): Conv2d(64, 64, kernel_size=(3, 3), stride=(1, 1), padding=(1, 1))
        (2): PReLU(num_parameters=1)
        (3): Conv2d(64, 64, kernel_size=(3, 3), stride=(1, 1), padding=(1, 1))
      )
      (conv2): Conv2d(64, 64, kernel_size=(3, 3), stride=(1, 1), padding=(1, 1))
    )
    (lateral_02): LateralBlock(
      (conv): Sequential(
        (0): PReLU(num_parameters=1)
        (1): Conv2d(32, 32, kernel_size=(3, 3), stride=(1, 1), padding=(1, 1))
        (2): PReLU(num_parameters=1)
        (3): Conv2d(32, 32, kernel_size=(3, 3), stride=(1, 1), padding=(1, 1))
      )
      (conv2): Conv2d(32, 32, kernel_size=(3, 3), stride=(1, 1), padding=(1, 1))
    )
    (up_13): UpSamplingBlock(
      (up): Sequential(
        (0): Upsample(scale_factor=2, mode=bilinear)
        (1): PReLU(num_parameters=1)
        (2): Conv2d(96, 64, kernel_size=(3, 3), stride=(1, 1), padding=(1, 1))
        (3): PReLU(num_parameters=1)
        (4): Conv2d(64, 64, kernel_size=(3, 3), stride=(1, 1), padding=(1, 1))
      )
    )
    (up_03): UpSamplingBlock(
      (up): Sequential(
        (0): Upsample(scale_factor=2, mode=bilinear)
        (1): PReLU(num_parameters=1)
        (2): Conv2d(64, 32, kernel_size=(3, 3), stride=(1, 1), padding=(1, 1))
        (3): PReLU(num_parameters=1)
        (4): Conv2d(32, 32, kernel_size=(3, 3), stride=(1, 1), padding=(1, 1))
      )
    )
    (lateral_23): LateralBlock(
      (conv): Sequential(
        (0): PReLU(num_parameters=1)
        (1): Conv2d(96, 96, kernel_size=(3, 3), stride=(1, 1), padding=(1, 1))
        (2): PReLU(num_parameters=1)
        (3): Conv2d(96, 96, kernel_size=(3, 3), stride=(1, 1), padding=(1, 1))
      )
      (conv2): Conv2d(96, 96, kernel_size=(3, 3), stride=(1, 1), padding=(1, 1))
    )
    (lateral_13): LateralBlock(
      (conv): Sequential(
        (0): PReLU(num_parameters=1)
        (1): Conv2d(64, 64, kernel_size=(3, 3), stride=(1, 1), padding=(1, 1))
        (2): PReLU(num_parameters=1)
        (3): Conv2d(64, 64, kernel_size=(3, 3), stride=(1, 1), padding=(1, 1))
      )
      (conv2): Conv2d(64, 64, kernel_size=(3, 3), stride=(1, 1), padding=(1, 1))
    )
    (lateral_03): LateralBlock(
      (conv): Sequential(
        (0): PReLU(num_parameters=1)
        (1): Conv2d(32, 32, kernel_size=(3, 3), stride=(1, 1), padding=(1, 1))
        (2): PReLU(num_parameters=1)
        (3): Conv2d(32, 32, kernel_size=(3, 3), stride=(1, 1), padding=(1, 1))
      )
      (conv2): Conv2d(32, 32, kernel_size=(3, 3), stride=(1, 1), padding=(1, 1))
    )
    (up_14): UpSamplingBlock(
      (up): Sequential(
        (0): Upsample(scale_factor=2, mode=bilinear)
        (1): PReLU(num_parameters=1)
        (2): Conv2d(96, 64, kernel_size=(3, 3), stride=(1, 1), padding=(1, 1))
        (3): PReLU(num_parameters=1)
        (4): Conv2d(64, 64, kernel_size=(3, 3), stride=(1, 1), padding=(1, 1))
      )
    )
    (up_04): UpSamplingBlock(
      (up): Sequential(
        (0): Upsample(scale_factor=2, mode=bilinear)
        (1): PReLU(num_parameters=1)
        (2): Conv2d(64, 32, kernel_size=(3, 3), stride=(1, 1), padding=(1, 1))
        (3): PReLU(num_parameters=1)
        (4): Conv2d(32, 32, kernel_size=(3, 3), stride=(1, 1), padding=(1, 1))
      )
    )
    (lateral_24): LateralBlock(
      (conv): Sequential(
        (0): PReLU(num_parameters=1)
        (1): Conv2d(96, 96, kernel_size=(3, 3), stride=(1, 1), padding=(1, 1))
        (2): PReLU(num_parameters=1)
        (3): Conv2d(96, 96, kernel_size=(3, 3), stride=(1, 1), padding=(1, 1))
      )
      (conv2): Conv2d(96, 96, kernel_size=(3, 3), stride=(1, 1), padding=(1, 1))
    )
    (lateral_14): LateralBlock(
      (conv): Sequential(
        (0): PReLU(num_parameters=1)
        (1): Conv2d(64, 64, kernel_size=(3, 3), stride=(1, 1), padding=(1, 1))
        (2): PReLU(num_parameters=1)
        (3): Conv2d(64, 64, kernel_size=(3, 3), stride=(1, 1), padding=(1, 1))
      )
      (conv2): Conv2d(64, 64, kernel_size=(3, 3), stride=(1, 1), padding=(1, 1))
    )
    (lateral_04): LateralBlock(
      (conv): Sequential(
        (0): PReLU(num_parameters=1)
        (1): Conv2d(32, 32, kernel_size=(3, 3), stride=(1, 1), padding=(1, 1))
        (2): PReLU(num_parameters=1)
        (3): Conv2d(32, 32, kernel_size=(3, 3), stride=(1, 1), padding=(1, 1))
      )
      (conv2): Conv2d(32, 32, kernel_size=(3, 3), stride=(1, 1), padding=(1, 1))
    )
    (up_15): UpSamplingBlock(
      (up): Sequential(
        (0): Upsample(scale_factor=2, mode=bilinear)
        (1): PReLU(num_parameters=1)
        (2): Conv2d(96, 64, kernel_size=(3, 3), stride=(1, 1), padding=(1, 1))
        (3): PReLU(num_parameters=1)
        (4): Conv2d(64, 64, kernel_size=(3, 3), stride=(1, 1), padding=(1, 1))
      )
    )
    (up_05): UpSamplingBlock(
      (up): Sequential(
        (0): Upsample(scale_factor=2, mode=bilinear)
        (1): PReLU(num_parameters=1)
        (2): Conv2d(64, 32, kernel_size=(3, 3), stride=(1, 1), padding=(1, 1))
        (3): PReLU(num_parameters=1)
        (4): Conv2d(32, 32, kernel_size=(3, 3), stride=(1, 1), padding=(1, 1))
      )
    )
  )
)
2019-04-08 11:15:25,168 - [worker 1] - Model info
DistributedDataParallel(
  (module): GridNet(
    (lateral_in): LateralBlock(
      (conv): Sequential(
        (0): PReLU(num_parameters=1)
        (1): Conv2d(12, 32, kernel_size=(3, 3), stride=(1, 1), padding=(1, 1))
        (2): PReLU(num_parameters=1)
        (3): Conv2d(32, 32, kernel_size=(3, 3), stride=(1, 1), padding=(1, 1))
      )
      (conv2): Conv2d(12, 32, kernel_size=(3, 3), stride=(1, 1), padding=(1, 1))
    )
    (lateral_out): LateralBlock(
      (conv): Sequential(
        (0): PReLU(num_parameters=1)
        (1): Conv2d(32, 3, kernel_size=(3, 3), stride=(1, 1), padding=(1, 1))
        (2): PReLU(num_parameters=1)
        (3): Conv2d(3, 3, kernel_size=(3, 3), stride=(1, 1), padding=(1, 1))
      )
      (conv2): Conv2d(32, 3, kernel_size=(3, 3), stride=(1, 1), padding=(1, 1))
    )
    (down_00): DownSamplingBlock(
      (conv): Sequential(
        (0): PReLU(num_parameters=1)
        (1): Conv2d(32, 64, kernel_size=(3, 3), stride=(2, 2), padding=(1, 1))
        (2): PReLU(num_parameters=1)
        (3): Conv2d(64, 64, kernel_size=(3, 3), stride=(1, 1), padding=(1, 1))
      )
    )
    (down_10): DownSamplingBlock(
      (conv): Sequential(
        (0): PReLU(num_parameters=1)
        (1): Conv2d(64, 96, kernel_size=(3, 3), stride=(2, 2), padding=(1, 1))
        (2): PReLU(num_parameters=1)
        (3): Conv2d(96, 96, kernel_size=(3, 3), stride=(1, 1), padding=(1, 1))
      )
    )
    (lateral_00): LateralBlock(
      (conv): Sequential(
        (0): PReLU(num_parameters=1)
        (1): Conv2d(32, 32, kernel_size=(3, 3), stride=(1, 1), padding=(1, 1))
        (2): PReLU(num_parameters=1)
        (3): Conv2d(32, 32, kernel_size=(3, 3), stride=(1, 1), padding=(1, 1))
      )
      (conv2): Conv2d(32, 32, kernel_size=(3, 3), stride=(1, 1), padding=(1, 1))
    )
    (down_01): DownSamplingBlock(
      (conv): Sequential(
        (0): PReLU(num_parameters=1)
        (1): Conv2d(32, 64, kernel_size=(3, 3), stride=(2, 2), padding=(1, 1))
        (2): PReLU(num_parameters=1)
        (3): Conv2d(64, 64, kernel_size=(3, 3), stride=(1, 1), padding=(1, 1))
      )
    )
    (down_11): DownSamplingBlock(
      (conv): Sequential(
        (0): PReLU(num_parameters=1)
        (1): Conv2d(64, 96, kernel_size=(3, 3), stride=(2, 2), padding=(1, 1))
        (2): PReLU(num_parameters=1)
        (3): Conv2d(96, 96, kernel_size=(3, 3), stride=(1, 1), padding=(1, 1))
      )
    )
    (lateral_10): LateralBlock(
      (conv): Sequential(
        (0): PReLU(num_parameters=1)
        (1): Conv2d(64, 64, kernel_size=(3, 3), stride=(1, 1), padding=(1, 1))
        (2): PReLU(num_parameters=1)
        (3): Conv2d(64, 64, kernel_size=(3, 3), stride=(1, 1), padding=(1, 1))
      )
      (conv2): Conv2d(64, 64, kernel_size=(3, 3), stride=(1, 1), padding=(1, 1))
    )
    (lateral_20): LateralBlock(
      (conv): Sequential(
        (0): PReLU(num_parameters=1)
        (1): Conv2d(96, 96, kernel_size=(3, 3), stride=(1, 1), padding=(1, 1))
        (2): PReLU(num_parameters=1)
        (3): Conv2d(96, 96, kernel_size=(3, 3), stride=(1, 1), padding=(1, 1))
      )
      (conv2): Conv2d(96, 96, kernel_size=(3, 3), stride=(1, 1), padding=(1, 1))
    )
    (lateral_01): LateralBlock(
      (conv): Sequential(
        (0): PReLU(num_parameters=1)
        (1): Conv2d(32, 32, kernel_size=(3, 3), stride=(1, 1), padding=(1, 1))
        (2): PReLU(num_parameters=1)
        (3): Conv2d(32, 32, kernel_size=(3, 3), stride=(1, 1), padding=(1, 1))
      )
      (conv2): Conv2d(32, 32, kernel_size=(3, 3), stride=(1, 1), padding=(1, 1))
    )
    (down_02): DownSamplingBlock(
      (conv): Sequential(
        (0): PReLU(num_parameters=1)
        (1): Conv2d(32, 64, kernel_size=(3, 3), stride=(2, 2), padding=(1, 1))
        (2): PReLU(num_parameters=1)
        (3): Conv2d(64, 64, kernel_size=(3, 3), stride=(1, 1), padding=(1, 1))
      )
    )
    (down_12): DownSamplingBlock(
      (conv): Sequential(
        (0): PReLU(num_parameters=1)
        (1): Conv2d(64, 96, kernel_size=(3, 3), stride=(2, 2), padding=(1, 1))
        (2): PReLU(num_parameters=1)
        (3): Conv2d(96, 96, kernel_size=(3, 3), stride=(1, 1), padding=(1, 1))
      )
    )
    (lateral_11): LateralBlock(
      (conv): Sequential(
        (0): PReLU(num_parameters=1)
        (1): Conv2d(64, 64, kernel_size=(3, 3), stride=(1, 1), padding=(1, 1))
        (2): PReLU(num_parameters=1)
        (3): Conv2d(64, 64, kernel_size=(3, 3), stride=(1, 1), padding=(1, 1))
      )
      (conv2): Conv2d(64, 64, kernel_size=(3, 3), stride=(1, 1), padding=(1, 1))
    )
    (lateral_21): LateralBlock(
      (conv): Sequential(
        (0): PReLU(num_parameters=1)
        (1): Conv2d(96, 96, kernel_size=(3, 3), stride=(1, 1), padding=(1, 1))
        (2): PReLU(num_parameters=1)
        (3): Conv2d(96, 96, kernel_size=(3, 3), stride=(1, 1), padding=(1, 1))
      )
      (conv2): Conv2d(96, 96, kernel_size=(3, 3), stride=(1, 1), padding=(1, 1))
    )
    (lateral_22): LateralBlock(
      (conv): Sequential(
        (0): PReLU(num_parameters=1)
        (1): Conv2d(96, 96, kernel_size=(3, 3), stride=(1, 1), padding=(1, 1))
        (2): PReLU(num_parameters=1)
        (3): Conv2d(96, 96, kernel_size=(3, 3), stride=(1, 1), padding=(1, 1))
      )
      (conv2): Conv2d(96, 96, kernel_size=(3, 3), stride=(1, 1), padding=(1, 1))
    )
    (lateral_12): LateralBlock(
      (conv): Sequential(
        (0): PReLU(num_parameters=1)
        (1): Conv2d(64, 64, kernel_size=(3, 3), stride=(1, 1), padding=(1, 1))
        (2): PReLU(num_parameters=1)
        (3): Conv2d(64, 64, kernel_size=(3, 3), stride=(1, 1), padding=(1, 1))
      )
      (conv2): Conv2d(64, 64, kernel_size=(3, 3), stride=(1, 1), padding=(1, 1))
    )
    (lateral_02): LateralBlock(
      (conv): Sequential(
        (0): PReLU(num_parameters=1)
        (1): Conv2d(32, 32, kernel_size=(3, 3), stride=(1, 1), padding=(1, 1))
        (2): PReLU(num_parameters=1)
        (3): Conv2d(32, 32, kernel_size=(3, 3), stride=(1, 1), padding=(1, 1))
      )
      (conv2): Conv2d(32, 32, kernel_size=(3, 3), stride=(1, 1), padding=(1, 1))
    )
    (up_13): UpSamplingBlock(
      (up): Sequential(
        (0): Upsample(scale_factor=2, mode=bilinear)
        (1): PReLU(num_parameters=1)
        (2): Conv2d(96, 64, kernel_size=(3, 3), stride=(1, 1), padding=(1, 1))
        (3): PReLU(num_parameters=1)
        (4): Conv2d(64, 64, kernel_size=(3, 3), stride=(1, 1), padding=(1, 1))
      )
    )
    (up_03): UpSamplingBlock(
      (up): Sequential(
        (0): Upsample(scale_factor=2, mode=bilinear)
        (1): PReLU(num_parameters=1)
        (2): Conv2d(64, 32, kernel_size=(3, 3), stride=(1, 1), padding=(1, 1))
        (3): PReLU(num_parameters=1)
        (4): Conv2d(32, 32, kernel_size=(3, 3), stride=(1, 1), padding=(1, 1))
      )
    )
    (lateral_23): LateralBlock(
      (conv): Sequential(
        (0): PReLU(num_parameters=1)
        (1): Conv2d(96, 96, kernel_size=(3, 3), stride=(1, 1), padding=(1, 1))
        (2): PReLU(num_parameters=1)
        (3): Conv2d(96, 96, kernel_size=(3, 3), stride=(1, 1), padding=(1, 1))
      )
      (conv2): Conv2d(96, 96, kernel_size=(3, 3), stride=(1, 1), padding=(1, 1))
    )
    (lateral_13): LateralBlock(
      (conv): Sequential(
        (0): PReLU(num_parameters=1)
        (1): Conv2d(64, 64, kernel_size=(3, 3), stride=(1, 1), padding=(1, 1))
        (2): PReLU(num_parameters=1)
        (3): Conv2d(64, 64, kernel_size=(3, 3), stride=(1, 1), padding=(1, 1))
      )
      (conv2): Conv2d(64, 64, kernel_size=(3, 3), stride=(1, 1), padding=(1, 1))
    )
    (lateral_03): LateralBlock(
      (conv): Sequential(
        (0): PReLU(num_parameters=1)
        (1): Conv2d(32, 32, kernel_size=(3, 3), stride=(1, 1), padding=(1, 1))
        (2): PReLU(num_parameters=1)
        (3): Conv2d(32, 32, kernel_size=(3, 3), stride=(1, 1), padding=(1, 1))
      )
      (conv2): Conv2d(32, 32, kernel_size=(3, 3), stride=(1, 1), padding=(1, 1))
    )
    (up_14): UpSamplingBlock(
      (up): Sequential(
        (0): Upsample(scale_factor=2, mode=bilinear)
        (1): PReLU(num_parameters=1)
        (2): Conv2d(96, 64, kernel_size=(3, 3), stride=(1, 1), padding=(1, 1))
        (3): PReLU(num_parameters=1)
        (4): Conv2d(64, 64, kernel_size=(3, 3), stride=(1, 1), padding=(1, 1))
      )
    )
    (up_04): UpSamplingBlock(
      (up): Sequential(
        (0): Upsample(scale_factor=2, mode=bilinear)
        (1): PReLU(num_parameters=1)
        (2): Conv2d(64, 32, kernel_size=(3, 3), stride=(1, 1), padding=(1, 1))
        (3): PReLU(num_parameters=1)
        (4): Conv2d(32, 32, kernel_size=(3, 3), stride=(1, 1), padding=(1, 1))
      )
    )
    (lateral_24): LateralBlock(
      (conv): Sequential(
        (0): PReLU(num_parameters=1)
        (1): Conv2d(96, 96, kernel_size=(3, 3), stride=(1, 1), padding=(1, 1))
        (2): PReLU(num_parameters=1)
        (3): Conv2d(96, 96, kernel_size=(3, 3), stride=(1, 1), padding=(1, 1))
      )
      (conv2): Conv2d(96, 96, kernel_size=(3, 3), stride=(1, 1), padding=(1, 1))
    )
    (lateral_14): LateralBlock(
      (conv): Sequential(
        (0): PReLU(num_parameters=1)
        (1): Conv2d(64, 64, kernel_size=(3, 3), stride=(1, 1), padding=(1, 1))
        (2): PReLU(num_parameters=1)
        (3): Conv2d(64, 64, kernel_size=(3, 3), stride=(1, 1), padding=(1, 1))
      )
      (conv2): Conv2d(64, 64, kernel_size=(3, 3), stride=(1, 1), padding=(1, 1))
    )
    (lateral_04): LateralBlock(
      (conv): Sequential(
        (0): PReLU(num_parameters=1)
        (1): Conv2d(32, 32, kernel_size=(3, 3), stride=(1, 1), padding=(1, 1))
        (2): PReLU(num_parameters=1)
        (3): Conv2d(32, 32, kernel_size=(3, 3), stride=(1, 1), padding=(1, 1))
      )
      (conv2): Conv2d(32, 32, kernel_size=(3, 3), stride=(1, 1), padding=(1, 1))
    )
    (up_15): UpSamplingBlock(
      (up): Sequential(
        (0): Upsample(scale_factor=2, mode=bilinear)
        (1): PReLU(num_parameters=1)
        (2): Conv2d(96, 64, kernel_size=(3, 3), stride=(1, 1), padding=(1, 1))
        (3): PReLU(num_parameters=1)
        (4): Conv2d(64, 64, kernel_size=(3, 3), stride=(1, 1), padding=(1, 1))
      )
    )
    (up_05): UpSamplingBlock(
      (up): Sequential(
        (0): Upsample(scale_factor=2, mode=bilinear)
        (1): PReLU(num_parameters=1)
        (2): Conv2d(64, 32, kernel_size=(3, 3), stride=(1, 1), padding=(1, 1))
        (3): PReLU(num_parameters=1)
        (4): Conv2d(32, 32, kernel_size=(3, 3), stride=(1, 1), padding=(1, 1))
      )
    )
  )
)
2019-04-08 11:15:25,170 - [worker 0] - Model info
DistributedDataParallel(
  (module): GridNet(
    (lateral_in): LateralBlock(
      (conv): Sequential(
        (0): PReLU(num_parameters=1)
        (1): Conv2d(12, 32, kernel_size=(3, 3), stride=(1, 1), padding=(1, 1))
        (2): PReLU(num_parameters=1)
        (3): Conv2d(32, 32, kernel_size=(3, 3), stride=(1, 1), padding=(1, 1))
      )
      (conv2): Conv2d(12, 32, kernel_size=(3, 3), stride=(1, 1), padding=(1, 1))
    )
    (lateral_out): LateralBlock(
      (conv): Sequential(
        (0): PReLU(num_parameters=1)
        (1): Conv2d(32, 3, kernel_size=(3, 3), stride=(1, 1), padding=(1, 1))
        (2): PReLU(num_parameters=1)
        (3): Conv2d(3, 3, kernel_size=(3, 3), stride=(1, 1), padding=(1, 1))
      )
      (conv2): Conv2d(32, 3, kernel_size=(3, 3), stride=(1, 1), padding=(1, 1))
    )
    (down_00): DownSamplingBlock(
      (conv): Sequential(
        (0): PReLU(num_parameters=1)
        (1): Conv2d(32, 64, kernel_size=(3, 3), stride=(2, 2), padding=(1, 1))
        (2): PReLU(num_parameters=1)
        (3): Conv2d(64, 64, kernel_size=(3, 3), stride=(1, 1), padding=(1, 1))
      )
    )
    (down_10): DownSamplingBlock(
      (conv): Sequential(
        (0): PReLU(num_parameters=1)
        (1): Conv2d(64, 96, kernel_size=(3, 3), stride=(2, 2), padding=(1, 1))
        (2): PReLU(num_parameters=1)
        (3): Conv2d(96, 96, kernel_size=(3, 3), stride=(1, 1), padding=(1, 1))
      )
    )
    (lateral_00): LateralBlock(
      (conv): Sequential(
        (0): PReLU(num_parameters=1)
        (1): Conv2d(32, 32, kernel_size=(3, 3), stride=(1, 1), padding=(1, 1))
        (2): PReLU(num_parameters=1)
        (3): Conv2d(32, 32, kernel_size=(3, 3), stride=(1, 1), padding=(1, 1))
      )
      (conv2): Conv2d(32, 32, kernel_size=(3, 3), stride=(1, 1), padding=(1, 1))
    )
    (down_01): DownSamplingBlock(
      (conv): Sequential(
        (0): PReLU(num_parameters=1)
        (1): Conv2d(32, 64, kernel_size=(3, 3), stride=(2, 2), padding=(1, 1))
        (2): PReLU(num_parameters=1)
        (3): Conv2d(64, 64, kernel_size=(3, 3), stride=(1, 1), padding=(1, 1))
      )
    )
    (down_11): DownSamplingBlock(
      (conv): Sequential(
        (0): PReLU(num_parameters=1)
        (1): Conv2d(64, 96, kernel_size=(3, 3), stride=(2, 2), padding=(1, 1))
        (2): PReLU(num_parameters=1)
        (3): Conv2d(96, 96, kernel_size=(3, 3), stride=(1, 1), padding=(1, 1))
      )
    )
    (lateral_10): LateralBlock(
      (conv): Sequential(
        (0): PReLU(num_parameters=1)
        (1): Conv2d(64, 64, kernel_size=(3, 3), stride=(1, 1), padding=(1, 1))
        (2): PReLU(num_parameters=1)
        (3): Conv2d(64, 64, kernel_size=(3, 3), stride=(1, 1), padding=(1, 1))
      )
      (conv2): Conv2d(64, 64, kernel_size=(3, 3), stride=(1, 1), padding=(1, 1))
    )
    (lateral_20): LateralBlock(
      (conv): Sequential(
        (0): PReLU(num_parameters=1)
        (1): Conv2d(96, 96, kernel_size=(3, 3), stride=(1, 1), padding=(1, 1))
        (2): PReLU(num_parameters=1)
        (3): Conv2d(96, 96, kernel_size=(3, 3), stride=(1, 1), padding=(1, 1))
      )
      (conv2): Conv2d(96, 96, kernel_size=(3, 3), stride=(1, 1), padding=(1, 1))
    )
    (lateral_01): LateralBlock(
      (conv): Sequential(
        (0): PReLU(num_parameters=1)
        (1): Conv2d(32, 32, kernel_size=(3, 3), stride=(1, 1), padding=(1, 1))
        (2): PReLU(num_parameters=1)
        (3): Conv2d(32, 32, kernel_size=(3, 3), stride=(1, 1), padding=(1, 1))
      )
      (conv2): Conv2d(32, 32, kernel_size=(3, 3), stride=(1, 1), padding=(1, 1))
    )
    (down_02): DownSamplingBlock(
      (conv): Sequential(
        (0): PReLU(num_parameters=1)
        (1): Conv2d(32, 64, kernel_size=(3, 3), stride=(2, 2), padding=(1, 1))
        (2): PReLU(num_parameters=1)
        (3): Conv2d(64, 64, kernel_size=(3, 3), stride=(1, 1), padding=(1, 1))
      )
    )
    (down_12): DownSamplingBlock(
      (conv): Sequential(
        (0): PReLU(num_parameters=1)
        (1): Conv2d(64, 96, kernel_size=(3, 3), stride=(2, 2), padding=(1, 1))
        (2): PReLU(num_parameters=1)
        (3): Conv2d(96, 96, kernel_size=(3, 3), stride=(1, 1), padding=(1, 1))
      )
    )
    (lateral_11): LateralBlock(
      (conv): Sequential(
        (0): PReLU(num_parameters=1)
        (1): Conv2d(64, 64, kernel_size=(3, 3), stride=(1, 1), padding=(1, 1))
        (2): PReLU(num_parameters=1)
        (3): Conv2d(64, 64, kernel_size=(3, 3), stride=(1, 1), padding=(1, 1))
      )
      (conv2): Conv2d(64, 64, kernel_size=(3, 3), stride=(1, 1), padding=(1, 1))
    )
    (lateral_21): LateralBlock(
      (conv): Sequential(
        (0): PReLU(num_parameters=1)
        (1): Conv2d(96, 96, kernel_size=(3, 3), stride=(1, 1), padding=(1, 1))
        (2): PReLU(num_parameters=1)
        (3): Conv2d(96, 96, kernel_size=(3, 3), stride=(1, 1), padding=(1, 1))
      )
      (conv2): Conv2d(96, 96, kernel_size=(3, 3), stride=(1, 1), padding=(1, 1))
    )
    (lateral_22): LateralBlock(
      (conv): Sequential(
        (0): PReLU(num_parameters=1)
        (1): Conv2d(96, 96, kernel_size=(3, 3), stride=(1, 1), padding=(1, 1))
        (2): PReLU(num_parameters=1)
        (3): Conv2d(96, 96, kernel_size=(3, 3), stride=(1, 1), padding=(1, 1))
      )
      (conv2): Conv2d(96, 96, kernel_size=(3, 3), stride=(1, 1), padding=(1, 1))
    )
    (lateral_12): LateralBlock(
      (conv): Sequential(
        (0): PReLU(num_parameters=1)
        (1): Conv2d(64, 64, kernel_size=(3, 3), stride=(1, 1), padding=(1, 1))
        (2): PReLU(num_parameters=1)
        (3): Conv2d(64, 64, kernel_size=(3, 3), stride=(1, 1), padding=(1, 1))
      )
      (conv2): Conv2d(64, 64, kernel_size=(3, 3), stride=(1, 1), padding=(1, 1))
    )
    (lateral_02): LateralBlock(
      (conv): Sequential(
        (0): PReLU(num_parameters=1)
        (1): Conv2d(32, 32, kernel_size=(3, 3), stride=(1, 1), padding=(1, 1))
        (2): PReLU(num_parameters=1)
        (3): Conv2d(32, 32, kernel_size=(3, 3), stride=(1, 1), padding=(1, 1))
      )
      (conv2): Conv2d(32, 32, kernel_size=(3, 3), stride=(1, 1), padding=(1, 1))
    )
    (up_13): UpSamplingBlock(
      (up): Sequential(
        (0): Upsample(scale_factor=2, mode=bilinear)
        (1): PReLU(num_parameters=1)
        (2): Conv2d(96, 64, kernel_size=(3, 3), stride=(1, 1), padding=(1, 1))
        (3): PReLU(num_parameters=1)
        (4): Conv2d(64, 64, kernel_size=(3, 3), stride=(1, 1), padding=(1, 1))
      )
    )
    (up_03): UpSamplingBlock(
      (up): Sequential(
        (0): Upsample(scale_factor=2, mode=bilinear)
        (1): PReLU(num_parameters=1)
        (2): Conv2d(64, 32, kernel_size=(3, 3), stride=(1, 1), padding=(1, 1))
        (3): PReLU(num_parameters=1)
        (4): Conv2d(32, 32, kernel_size=(3, 3), stride=(1, 1), padding=(1, 1))
      )
    )
    (lateral_23): LateralBlock(
      (conv): Sequential(
        (0): PReLU(num_parameters=1)
        (1): Conv2d(96, 96, kernel_size=(3, 3), stride=(1, 1), padding=(1, 1))
        (2): PReLU(num_parameters=1)
        (3): Conv2d(96, 96, kernel_size=(3, 3), stride=(1, 1), padding=(1, 1))
      )
      (conv2): Conv2d(96, 96, kernel_size=(3, 3), stride=(1, 1), padding=(1, 1))
    )
    (lateral_13): LateralBlock(
      (conv): Sequential(
        (0): PReLU(num_parameters=1)
        (1): Conv2d(64, 64, kernel_size=(3, 3), stride=(1, 1), padding=(1, 1))
        (2): PReLU(num_parameters=1)
        (3): Conv2d(64, 64, kernel_size=(3, 3), stride=(1, 1), padding=(1, 1))
      )
      (conv2): Conv2d(64, 64, kernel_size=(3, 3), stride=(1, 1), padding=(1, 1))
    )
    (lateral_03): LateralBlock(
      (conv): Sequential(
        (0): PReLU(num_parameters=1)
        (1): Conv2d(32, 32, kernel_size=(3, 3), stride=(1, 1), padding=(1, 1))
        (2): PReLU(num_parameters=1)
        (3): Conv2d(32, 32, kernel_size=(3, 3), stride=(1, 1), padding=(1, 1))
      )
      (conv2): Conv2d(32, 32, kernel_size=(3, 3), stride=(1, 1), padding=(1, 1))
    )
    (up_14): UpSamplingBlock(
      (up): Sequential(
        (0): Upsample(scale_factor=2, mode=bilinear)
        (1): PReLU(num_parameters=1)
        (2): Conv2d(96, 64, kernel_size=(3, 3), stride=(1, 1), padding=(1, 1))
        (3): PReLU(num_parameters=1)
        (4): Conv2d(64, 64, kernel_size=(3, 3), stride=(1, 1), padding=(1, 1))
      )
    )
    (up_04): UpSamplingBlock(
      (up): Sequential(
        (0): Upsample(scale_factor=2, mode=bilinear)
        (1): PReLU(num_parameters=1)
        (2): Conv2d(64, 32, kernel_size=(3, 3), stride=(1, 1), padding=(1, 1))
        (3): PReLU(num_parameters=1)
        (4): Conv2d(32, 32, kernel_size=(3, 3), stride=(1, 1), padding=(1, 1))
      )
    )
    (lateral_24): LateralBlock(
      (conv): Sequential(
        (0): PReLU(num_parameters=1)
        (1): Conv2d(96, 96, kernel_size=(3, 3), stride=(1, 1), padding=(1, 1))
        (2): PReLU(num_parameters=1)
        (3): Conv2d(96, 96, kernel_size=(3, 3), stride=(1, 1), padding=(1, 1))
      )
      (conv2): Conv2d(96, 96, kernel_size=(3, 3), stride=(1, 1), padding=(1, 1))
    )
    (lateral_14): LateralBlock(
      (conv): Sequential(
        (0): PReLU(num_parameters=1)
        (1): Conv2d(64, 64, kernel_size=(3, 3), stride=(1, 1), padding=(1, 1))
        (2): PReLU(num_parameters=1)
        (3): Conv2d(64, 64, kernel_size=(3, 3), stride=(1, 1), padding=(1, 1))
      )
      (conv2): Conv2d(64, 64, kernel_size=(3, 3), stride=(1, 1), padding=(1, 1))
    )
    (lateral_04): LateralBlock(
      (conv): Sequential(
        (0): PReLU(num_parameters=1)
        (1): Conv2d(32, 32, kernel_size=(3, 3), stride=(1, 1), padding=(1, 1))
        (2): PReLU(num_parameters=1)
        (3): Conv2d(32, 32, kernel_size=(3, 3), stride=(1, 1), padding=(1, 1))
      )
      (conv2): Conv2d(32, 32, kernel_size=(3, 3), stride=(1, 1), padding=(1, 1))
    )
    (up_15): UpSamplingBlock(
      (up): Sequential(
        (0): Upsample(scale_factor=2, mode=bilinear)
        (1): PReLU(num_parameters=1)
        (2): Conv2d(96, 64, kernel_size=(3, 3), stride=(1, 1), padding=(1, 1))
        (3): PReLU(num_parameters=1)
        (4): Conv2d(64, 64, kernel_size=(3, 3), stride=(1, 1), padding=(1, 1))
      )
    )
    (up_05): UpSamplingBlock(
      (up): Sequential(
        (0): Upsample(scale_factor=2, mode=bilinear)
        (1): PReLU(num_parameters=1)
        (2): Conv2d(64, 32, kernel_size=(3, 3), stride=(1, 1), padding=(1, 1))
        (3): PReLU(num_parameters=1)
        (4): Conv2d(32, 32, kernel_size=(3, 3), stride=(1, 1), padding=(1, 1))
      )
    )
  )
)
2019-04-08 11:15:25,195 - [worker 3] - Model info
DistributedDataParallel(
  (module): GridNet(
    (lateral_in): LateralBlock(
      (conv): Sequential(
        (0): PReLU(num_parameters=1)
        (1): Conv2d(12, 32, kernel_size=(3, 3), stride=(1, 1), padding=(1, 1))
        (2): PReLU(num_parameters=1)
        (3): Conv2d(32, 32, kernel_size=(3, 3), stride=(1, 1), padding=(1, 1))
      )
      (conv2): Conv2d(12, 32, kernel_size=(3, 3), stride=(1, 1), padding=(1, 1))
    )
    (lateral_out): LateralBlock(
      (conv): Sequential(
        (0): PReLU(num_parameters=1)
        (1): Conv2d(32, 3, kernel_size=(3, 3), stride=(1, 1), padding=(1, 1))
        (2): PReLU(num_parameters=1)
        (3): Conv2d(3, 3, kernel_size=(3, 3), stride=(1, 1), padding=(1, 1))
      )
      (conv2): Conv2d(32, 3, kernel_size=(3, 3), stride=(1, 1), padding=(1, 1))
    )
    (down_00): DownSamplingBlock(
      (conv): Sequential(
        (0): PReLU(num_parameters=1)
        (1): Conv2d(32, 64, kernel_size=(3, 3), stride=(2, 2), padding=(1, 1))
        (2): PReLU(num_parameters=1)
        (3): Conv2d(64, 64, kernel_size=(3, 3), stride=(1, 1), padding=(1, 1))
      )
    )
    (down_10): DownSamplingBlock(
      (conv): Sequential(
        (0): PReLU(num_parameters=1)
        (1): Conv2d(64, 96, kernel_size=(3, 3), stride=(2, 2), padding=(1, 1))
        (2): PReLU(num_parameters=1)
        (3): Conv2d(96, 96, kernel_size=(3, 3), stride=(1, 1), padding=(1, 1))
      )
    )
    (lateral_00): LateralBlock(
      (conv): Sequential(
        (0): PReLU(num_parameters=1)
        (1): Conv2d(32, 32, kernel_size=(3, 3), stride=(1, 1), padding=(1, 1))
        (2): PReLU(num_parameters=1)
        (3): Conv2d(32, 32, kernel_size=(3, 3), stride=(1, 1), padding=(1, 1))
      )
      (conv2): Conv2d(32, 32, kernel_size=(3, 3), stride=(1, 1), padding=(1, 1))
    )
    (down_01): DownSamplingBlock(
      (conv): Sequential(
        (0): PReLU(num_parameters=1)
        (1): Conv2d(32, 64, kernel_size=(3, 3), stride=(2, 2), padding=(1, 1))
        (2): PReLU(num_parameters=1)
        (3): Conv2d(64, 64, kernel_size=(3, 3), stride=(1, 1), padding=(1, 1))
      )
    )
    (down_11): DownSamplingBlock(
      (conv): Sequential(
        (0): PReLU(num_parameters=1)
        (1): Conv2d(64, 96, kernel_size=(3, 3), stride=(2, 2), padding=(1, 1))
        (2): PReLU(num_parameters=1)
        (3): Conv2d(96, 96, kernel_size=(3, 3), stride=(1, 1), padding=(1, 1))
      )
    )
    (lateral_10): LateralBlock(
      (conv): Sequential(
        (0): PReLU(num_parameters=1)
        (1): Conv2d(64, 64, kernel_size=(3, 3), stride=(1, 1), padding=(1, 1))
        (2): PReLU(num_parameters=1)
        (3): Conv2d(64, 64, kernel_size=(3, 3), stride=(1, 1), padding=(1, 1))
      )
      (conv2): Conv2d(64, 64, kernel_size=(3, 3), stride=(1, 1), padding=(1, 1))
    )
    (lateral_20): LateralBlock(
      (conv): Sequential(
        (0): PReLU(num_parameters=1)
        (1): Conv2d(96, 96, kernel_size=(3, 3), stride=(1, 1), padding=(1, 1))
        (2): PReLU(num_parameters=1)
        (3): Conv2d(96, 96, kernel_size=(3, 3), stride=(1, 1), padding=(1, 1))
      )
      (conv2): Conv2d(96, 96, kernel_size=(3, 3), stride=(1, 1), padding=(1, 1))
    )
    (lateral_01): LateralBlock(
      (conv): Sequential(
        (0): PReLU(num_parameters=1)
        (1): Conv2d(32, 32, kernel_size=(3, 3), stride=(1, 1), padding=(1, 1))
        (2): PReLU(num_parameters=1)
        (3): Conv2d(32, 32, kernel_size=(3, 3), stride=(1, 1), padding=(1, 1))
      )
      (conv2): Conv2d(32, 32, kernel_size=(3, 3), stride=(1, 1), padding=(1, 1))
    )
    (down_02): DownSamplingBlock(
      (conv): Sequential(
        (0): PReLU(num_parameters=1)
        (1): Conv2d(32, 64, kernel_size=(3, 3), stride=(2, 2), padding=(1, 1))
        (2): PReLU(num_parameters=1)
        (3): Conv2d(64, 64, kernel_size=(3, 3), stride=(1, 1), padding=(1, 1))
      )
    )
    (down_12): DownSamplingBlock(
      (conv): Sequential(
        (0): PReLU(num_parameters=1)
        (1): Conv2d(64, 96, kernel_size=(3, 3), stride=(2, 2), padding=(1, 1))
        (2): PReLU(num_parameters=1)
        (3): Conv2d(96, 96, kernel_size=(3, 3), stride=(1, 1), padding=(1, 1))
      )
    )
    (lateral_11): LateralBlock(
      (conv): Sequential(
        (0): PReLU(num_parameters=1)
        (1): Conv2d(64, 64, kernel_size=(3, 3), stride=(1, 1), padding=(1, 1))
        (2): PReLU(num_parameters=1)
        (3): Conv2d(64, 64, kernel_size=(3, 3), stride=(1, 1), padding=(1, 1))
      )
      (conv2): Conv2d(64, 64, kernel_size=(3, 3), stride=(1, 1), padding=(1, 1))
    )
    (lateral_21): LateralBlock(
      (conv): Sequential(
        (0): PReLU(num_parameters=1)
        (1): Conv2d(96, 96, kernel_size=(3, 3), stride=(1, 1), padding=(1, 1))
        (2): PReLU(num_parameters=1)
        (3): Conv2d(96, 96, kernel_size=(3, 3), stride=(1, 1), padding=(1, 1))
      )
      (conv2): Conv2d(96, 96, kernel_size=(3, 3), stride=(1, 1), padding=(1, 1))
    )
    (lateral_22): LateralBlock(
      (conv): Sequential(
        (0): PReLU(num_parameters=1)
        (1): Conv2d(96, 96, kernel_size=(3, 3), stride=(1, 1), padding=(1, 1))
        (2): PReLU(num_parameters=1)
        (3): Conv2d(96, 96, kernel_size=(3, 3), stride=(1, 1), padding=(1, 1))
      )
      (conv2): Conv2d(96, 96, kernel_size=(3, 3), stride=(1, 1), padding=(1, 1))
    )
    (lateral_12): LateralBlock(
      (conv): Sequential(
        (0): PReLU(num_parameters=1)
        (1): Conv2d(64, 64, kernel_size=(3, 3), stride=(1, 1), padding=(1, 1))
        (2): PReLU(num_parameters=1)
        (3): Conv2d(64, 64, kernel_size=(3, 3), stride=(1, 1), padding=(1, 1))
      )
      (conv2): Conv2d(64, 64, kernel_size=(3, 3), stride=(1, 1), padding=(1, 1))
    )
    (lateral_02): LateralBlock(
      (conv): Sequential(
        (0): PReLU(num_parameters=1)
        (1): Conv2d(32, 32, kernel_size=(3, 3), stride=(1, 1), padding=(1, 1))
        (2): PReLU(num_parameters=1)
        (3): Conv2d(32, 32, kernel_size=(3, 3), stride=(1, 1), padding=(1, 1))
      )
      (conv2): Conv2d(32, 32, kernel_size=(3, 3), stride=(1, 1), padding=(1, 1))
    )
    (up_13): UpSamplingBlock(
      (up): Sequential(
        (0): Upsample(scale_factor=2, mode=bilinear)
        (1): PReLU(num_parameters=1)
        (2): Conv2d(96, 64, kernel_size=(3, 3), stride=(1, 1), padding=(1, 1))
        (3): PReLU(num_parameters=1)
        (4): Conv2d(64, 64, kernel_size=(3, 3), stride=(1, 1), padding=(1, 1))
      )
    )
    (up_03): UpSamplingBlock(
      (up): Sequential(
        (0): Upsample(scale_factor=2, mode=bilinear)
        (1): PReLU(num_parameters=1)
        (2): Conv2d(64, 32, kernel_size=(3, 3), stride=(1, 1), padding=(1, 1))
        (3): PReLU(num_parameters=1)
        (4): Conv2d(32, 32, kernel_size=(3, 3), stride=(1, 1), padding=(1, 1))
      )
    )
    (lateral_23): LateralBlock(
      (conv): Sequential(
        (0): PReLU(num_parameters=1)
        (1): Conv2d(96, 96, kernel_size=(3, 3), stride=(1, 1), padding=(1, 1))
        (2): PReLU(num_parameters=1)
        (3): Conv2d(96, 96, kernel_size=(3, 3), stride=(1, 1), padding=(1, 1))
      )
      (conv2): Conv2d(96, 96, kernel_size=(3, 3), stride=(1, 1), padding=(1, 1))
    )
    (lateral_13): LateralBlock(
      (conv): Sequential(
        (0): PReLU(num_parameters=1)
        (1): Conv2d(64, 64, kernel_size=(3, 3), stride=(1, 1), padding=(1, 1))
        (2): PReLU(num_parameters=1)
        (3): Conv2d(64, 64, kernel_size=(3, 3), stride=(1, 1), padding=(1, 1))
      )
      (conv2): Conv2d(64, 64, kernel_size=(3, 3), stride=(1, 1), padding=(1, 1))
    )
    (lateral_03): LateralBlock(
      (conv): Sequential(
        (0): PReLU(num_parameters=1)
        (1): Conv2d(32, 32, kernel_size=(3, 3), stride=(1, 1), padding=(1, 1))
        (2): PReLU(num_parameters=1)
        (3): Conv2d(32, 32, kernel_size=(3, 3), stride=(1, 1), padding=(1, 1))
      )
      (conv2): Conv2d(32, 32, kernel_size=(3, 3), stride=(1, 1), padding=(1, 1))
    )
    (up_14): UpSamplingBlock(
      (up): Sequential(
        (0): Upsample(scale_factor=2, mode=bilinear)
        (1): PReLU(num_parameters=1)
        (2): Conv2d(96, 64, kernel_size=(3, 3), stride=(1, 1), padding=(1, 1))
        (3): PReLU(num_parameters=1)
        (4): Conv2d(64, 64, kernel_size=(3, 3), stride=(1, 1), padding=(1, 1))
      )
    )
    (up_04): UpSamplingBlock(
      (up): Sequential(
        (0): Upsample(scale_factor=2, mode=bilinear)
        (1): PReLU(num_parameters=1)
        (2): Conv2d(64, 32, kernel_size=(3, 3), stride=(1, 1), padding=(1, 1))
        (3): PReLU(num_parameters=1)
        (4): Conv2d(32, 32, kernel_size=(3, 3), stride=(1, 1), padding=(1, 1))
      )
    )
    (lateral_24): LateralBlock(
      (conv): Sequential(
        (0): PReLU(num_parameters=1)
        (1): Conv2d(96, 96, kernel_size=(3, 3), stride=(1, 1), padding=(1, 1))
        (2): PReLU(num_parameters=1)
        (3): Conv2d(96, 96, kernel_size=(3, 3), stride=(1, 1), padding=(1, 1))
      )
      (conv2): Conv2d(96, 96, kernel_size=(3, 3), stride=(1, 1), padding=(1, 1))
    )
    (lateral_14): LateralBlock(
      (conv): Sequential(
        (0): PReLU(num_parameters=1)
        (1): Conv2d(64, 64, kernel_size=(3, 3), stride=(1, 1), padding=(1, 1))
        (2): PReLU(num_parameters=1)
        (3): Conv2d(64, 64, kernel_size=(3, 3), stride=(1, 1), padding=(1, 1))
      )
      (conv2): Conv2d(64, 64, kernel_size=(3, 3), stride=(1, 1), padding=(1, 1))
    )
    (lateral_04): LateralBlock(
      (conv): Sequential(
        (0): PReLU(num_parameters=1)
        (1): Conv2d(32, 32, kernel_size=(3, 3), stride=(1, 1), padding=(1, 1))
        (2): PReLU(num_parameters=1)
        (3): Conv2d(32, 32, kernel_size=(3, 3), stride=(1, 1), padding=(1, 1))
      )
      (conv2): Conv2d(32, 32, kernel_size=(3, 3), stride=(1, 1), padding=(1, 1))
    )
    (up_15): UpSamplingBlock(
      (up): Sequential(
        (0): Upsample(scale_factor=2, mode=bilinear)
        (1): PReLU(num_parameters=1)
        (2): Conv2d(96, 64, kernel_size=(3, 3), stride=(1, 1), padding=(1, 1))
        (3): PReLU(num_parameters=1)
        (4): Conv2d(64, 64, kernel_size=(3, 3), stride=(1, 1), padding=(1, 1))
      )
    )
    (up_05): UpSamplingBlock(
      (up): Sequential(
        (0): Upsample(scale_factor=2, mode=bilinear)
        (1): PReLU(num_parameters=1)
        (2): Conv2d(64, 32, kernel_size=(3, 3), stride=(1, 1), padding=(1, 1))
        (3): PReLU(num_parameters=1)
        (4): Conv2d(32, 32, kernel_size=(3, 3), stride=(1, 1), padding=(1, 1))
      )
    )
  )
)
2019-04-08 11:15:32,581 - [worker 1] - Start of epoch 1
2019-04-08 11:15:32,581 - [worker 1] - Training started
2019-04-08 11:15:32,601 - [worker 3] - Start of epoch 1
2019-04-08 11:15:32,601 - [worker 3] - Training started
2019-04-08 11:15:32,610 - [worker 0] - Start of epoch 1
2019-04-08 11:15:32,610 - [worker 0] - Training started
…
